assets/neuralNumberModel/model.tflite (tflite, 205472 bytes, 4 tensors)

sequential/dense/BiasAdd/ReadVariableOp f4 [64]
000000 15 3a ac 3d 57 7b de 3d ab 00 0a bc 44 34 5c bd
       0.08409516 0.10863369 -0.008423011 -0.053760782
000010 71 04 c9 3d a4 c7 60 3e 44 57 36 3e 75 ec 7c 3d
       0.098153 0.21951157 0.17806727 0.06174894
000020 fc 75 54 3d c7 3e be 3d f8 01 07 3e bb ef 3c 3e
       0.05187033 0.092893176 0.13184345 0.18450825
000030 48 94 21 3d 51 0a 97 3d 3f fa 52 3c f4 7f 1f 3e
       0.039448053 0.073750146 0.012877046 0.15576154
000040 f1 09 06 be a4 67 2b 3c 5b a5 45 3d d6 47 95 bc
       -0.1308973 0.010461722 0.0482534 -0.01822273
000050 4d a3 0f be 29 c6 4c 3d bf ea 22 3b 7f 59 4f 3c
       -0.14027138 0.049993668 0.0024859158 0.012655615
000060 8b 60 d2 3c 50 ef 47 3d c5 11 5a 3c 14 c2 dc bd
       0.0256808 0.04881221 0.013309901 -0.10779205
000070 5e aa 3c be 5b b4 3f bb c9 83 b3 3d cb 61 b6 3d
       -0.18424365 -0.0029251787 0.087653704 0.08905371
000080 17 33 3f bd 81 ae 52 be 8e 87 7a 3c fa 20 b8 bc
       -0.046679582 -0.2057438 0.015291108 -0.022476662
000090 f4 d2 90 3c d6 3c 46 bc 3b 59 0e 3d 88 be 9a bd
       0.017678715 -0.012099465 0.034753066 -0.07555872
0000a0 6f d4 be bc 63 71 3e 3d 22 fd 14 3d d1 4d 7f 3c
       -0.023294656 0.046494853 0.03637422 0.015582518
0000b0 41 58 06 be 59 90 ed 3d 13 09 79 bd fb 68 04 3e
       -0.13119604 0.11599798 -0.06079967 0.12930672
0000c0 fa 69 4e bc e5 3c de 3d 92 b7 09 3e 10 47 a2 bc
       -0.012598509 0.108514585 0.13448933 -0.019809276
0000d0 45 0a a6 bc 7b 0c d4 3d 75 fc 04 3d dc 9f 66 3c
       -0.020268569 0.10353943 0.032467324 0.014076199
0000e0 e4 74 08 3c ec ae b8 3b 69 4b 6a bd d4 fd 72 3d
       0.00832865 0.0056360867 -0.057200823 0.0593241
0000f0 d2 ef 1f 3e 51 9b b8 3c 89 d9 d0 3d 7b 70 85 3d
       0.15618828 0.022534998 0.101977415 0.065155946

sequential/dense_1/BiasAdd/ReadVariableOp f4 [10]
000000 53 d4 ee bd 73 21 3b 3d a5 03 ef bc ca 65 3c bd
       -0.116615914 0.045686197 -0.029176543 -0.04599551
000010 0b 6a 59 3d 22 f4 24 3e d9 3b 25 3d 00 6e bf 3d
       0.053079646 0.16108754 0.04034028 0.09347153
000020 a9 5f b0 bd 05 d9 10 be
       -0.08611996 -0.14145286

sequential/dense/MatMul f4 [64, 784]
000000 7d 65 a5 3d 44 8d e2 3c ab 54 59 bd a0 8b 6c 3b
       0.08075998 0.027655251 -0.05305926 0.0036093965
000010 fd 56 9f 3d 57 33 89 bd d0 af d4 bb 08 b7 50 3c
       0.077802636 -0.066992454 -0.006490685 0.012738951
000020 f7 7c 9c 3d 3e 8a 2f 3d a8 6b 9c bd e0 15 2f 3c
       0.07641023 0.042856447 -0.07637721 0.010686368
000030 49 ff 2a 3d 65 0f b5 3d fd 41 b7 bc 29 7a 3a 3d
       0.041747365 0.08840827 -0.022370333 0.045526657
000040 2c c8 07 3d b6 f3 2c 3d 74 f7 cc bc 99 73 a2 3d
       0.033149883 0.04222461 -0.025020339 0.07932205
000050 40 03 a5 bd 4e c9 54 bd a3 10 4f bd fc 10 86 3c
       -0.080572605 -0.05194979 -0.050552975 0.01636552
000060 98 f1 31 3c d0 18 a1 bc 14 63 03 3d e8 26 87 bc
       0.010860823 -0.019665152 0.03207691 -0.016498044
000070 b1 83 8f 3d c5 83 8b 3d e0 53 37 bb 16 42 51 3d
       0.0700754 0.068122424 -0.0027973577 0.051088415
000080 84 9f 13 bc 07 ae 97 bc 98 53 07 3e e2 3e 1f 3e
       -0.009010199 -0.0185156 0.13215482 0.15551332
000090 4d 37 00 3e 67 05 33 3d bc c8 04 3e 32 15 41 3e
       0.12521096 0.043706324 0.12967199 0.18855742
0000a0 71 ec f1 3d 2b bc 8d 3d 58 b5 3b 3d 0f 3b c5 3c
       0.11812676 0.06920656 0.04582724 0.024076013
0000b0 4e 68 27 3e 1d a5 0f 3e 67 32 3f 3e 7b d2 0d 3e
       0.16348383 0.1402783 0.1867157 0.13849823
0000c0 5d 03 8d 3d b8 fe 42 3d 2a 62 96 3d fe 6c 1d 3e
       0.06885407 0.0476062 0.07342942 0.15373608
0000d0 80 27 69 3c 30 c3 14 bc 11 01 aa bd 20 1b 15 bb
       0.014230609 -0.009079739 -0.08300985 -0.0022751763
0000e0 d0 a0 9b 3b 00 b0 b6 39 c2 e8 3a bc e7 e5 98 bd
       0.004749395 0.00034844875 -0.011408033 -0.074657254
0000f0 31 8c 62 3b 0e ac ca 3c a7 de 25 3e 50 48 c8 3d
       0.0034568424 0.024740245 0.16198216 0.097794175
000100 df 71 5d 3e 72 1f 87 3e 28 e0 62 3e 5f 62 78 3e
       0.2162547 0.26391178 0.22155821 0.24256276
000110 cf be 56 3e 6b a5 35 3e 1a f9 ac 3e 0a 0c 52 3e
       0.20971225 0.17738883 0.337838 0.20512405
000120 77 ab 38 3d ec dd f1 3c 88 0a 0d 3c 9b 28 85 bd
       0.045085397 0.029524766 0.008608468 -0.065018855
000130 4a 4d 80 bd 5c 26 48 3d 25 d3 76 bc c0 59 97 3d
       -0.06264742 0.048864707 -0.015064989 0.07390165
000140 78 6c 47 bb bd 59 42 3c e0 a0 27 3b 43 88 a7 bd
       -0.0030429643 0.011862216 0.0025578067 -0.08180287
000150 a0 56 14 3b 8c 31 a8 3c 9a b1 ba bd 72 ea e7 3c
       0.002263464 0.020531438 -0.09115906 0.028310034
000160 18 88 4e 3d 28 39 76 bc 9b 6a 00 3e be a0 cd 3c
       0.050422758 -0.015028276 0.12540667 0.025101062
000170 e7 42 7e 3d ad 35 57 3e 80 2b d9 3c 08 7f 55 3c
       0.06207552 0.2101657 0.02651 0.013030775
000180 61 0b 26 3d fc 47 d5 3d 3f 93 79 3d 56 ba 4c bd
       0.040538196 0.104141206 0.06093144 -0.04998239
000190 88 6f 7c 3c 24 cb b9 bb 5e 9a a5 3c 5b e1 1d 3d
       0.0154074505 -0.005669968 0.02021521 0.038544994
0001a0 b4 b0 ce bd 15 fd bf bd f9 87 06 bd a2 33 81 3d
       -0.10092297 -0.093744434 -0.032844517 0.06308676
0001b0 4e 7e 39 3c 96 2f ab bd 34 73 b4 3c 5a 74 5f 3d
       0.011321617 -0.08358686 0.02202759 0.05455432
0001c0 b0 ce 73 bc 5a 12 43 3d fa e2 03 3d d7 88 16 be
       -0.014880821 0.047624923 0.032198884 -0.14700638
0001d0 02 6a 0f 3d 4f c4 82 3d 59 18 15 3d fa 6e 54 bd
       0.035013206 0.06385099 0.036400173 -0.051863648
0001e0 f0 a3 f3 3c fc 81 b5 3d 09 76 d3 bc ec 9d 33 3c
       0.029741257 0.08862683 -0.02581312 0.0109629445
0001f0 05 7f 8e bd 4a aa 97 bc b0 a4 bc bb 19 ee 9f bc
       -0.06957821 -0.018513817 -0.005756937 -0.019522713
000200 87 14 85 3c 78 c4 db bc 35 b4 9a bd cb 64 16 bc
       0.01624514 -0.026827082 -0.07553903 -0.009179304
000210 d0 a4 ea bc 20 45 3c be c3 16 6a be c8 eb 57 be
       -0.028643042 -0.18385744 -0.22860245 -0.21086037
000220 96 ff 11 be d0 5d 9f bc 94 6d 1e 3e 80 6f 7f 3d
       -0.14257655 -0.019453913 0.15471488 0.062362194
000230 3a 5e 5b bd 20 bb c3 bb ef 89 bb bc e8 c2 01 be
       -0.05355666 -0.005973235 -0.02289292 -0.12672007
000240 ea e6 00 3d a6 3f 0f bd f3 4a 57 3c 05 93 d4 3d
       0.031470217 -0.03497281 0.013140428 0.10379604
000250 f7 c4 ae 3d d1 f4 d1 3d 33 c4 c6 3d 9e e5 75 3d
       0.08533662 0.10251773 0.09705391 0.060033433
000260 7a 76 0b bd 0f a2 b4 3c c5 4b 25 bd c0 64 96 bd
       -0.034048535 0.022049932 -0.040355463 -0.07343435
000270 74 91 ac bd 61 c1 30 bd 6f 34 97 bd 74 90 90 bd
       -0.084261805 -0.04315317 -0.07383048 -0.07058802
000280 ad 42 02 be 91 f3 34 be be 91 16 be 2e 3a 47 be
       -0.12720747 -0.17671038 -0.14704034 -0.19455788
000290 f6 98 96 bd 17 ed 46 3c 23 56 20 3e 70 97 f1 3d
       -0.07353394 0.012141488 0.15657859 0.117964625
0002a0 39 33 94 3d 30 99 88 bd c1 79 2d bd cb df 97 bd
       0.072363324 -0.06669843 -0.04235244 -0.07415732
0002b0 1a 4b 8e 3c 69 71 68 3c b7 19 ca 3d ce a9 ed 3d
       0.017369796 0.014187195 0.09868186 0.11604653
0002c0 1c ce 19 3e 3d 9a 42 3d 68 f1 fb 3c 2b d5 03 3e
       0.1502003 0.047510374 0.03075476 0.12874286
0002d0 a2 51 a4 3d 5e c7 e0 3d f4 0a 43 3d f4 c6 88 3d
       0.08023383 0.10975526 0.047617868 0.06678572
0002e0 3f 77 a0 3d 02 90 5b 3c 70 00 17 3d 6c 50 cc bd
       0.078352444 0.013401033 0.03686565 -0.09976277
0002f0 a5 4d 0e be 9b 8f ca bd ae ef 8f bd 2b df 11 bd
       -0.13896807 -0.09890672 -0.07028137 -0.03561322
000300 7c 73 fd bd d5 42 d5 bd 6a 8f 13 bd 60 e4 35 3d
       -0.123755425 -0.10413138 -0.036025442 0.04440725
000310 0f ea 29 bd d6 7a ac bd ea 38 9e 3c fb d8 5b bd
       -0.04148298 -0.084218666 0.019314248 -0.053673726
000320 cb d5 2e bd f6 40 67 bc 9c c4 f2 3d 4b 1b 03 3d
       -0.042684358 -0.014114609 0.118539065 0.03200845
000330 37 8b 2f 3e 5f b4 3d 3d 6b 35 58 3c 88 ee cd 3d
       0.1714295 0.046314593 0.01319633 0.10055262
000340 92 38 c5 3d e2 1f 82 3d 12 66 4f bc 48 c4 0b 3d
       0.096299306 0.063537374 -0.012658613 0.034122735
000350 e4 1f 3c 3c fb 51 88 bd d6 02 9f bd a3 03 c2 bd
       0.011482213 -0.066562615 -0.07764213 -0.0947335
000360 6b 63 7d bd de a4 d3 bd b0 2e e5 bd 6f 2d 22 be
       -0.06186239 -0.1033418 -0.111905456 -0.15837644
000370 a5 ba 4a be 8e 3b ee bd 82 21 b1 bc f0 37 b0 3d
       -0.19797762 -0.11632453 -0.021622423 0.08604419
000380 20 e7 0d be a4 2a 2b bd a5 66 90 bd 62 79 e0 bd
       -0.13857698 -0.041788712 -0.07050828 -0.10960652
000390 3e 54 d5 bb 41 76 15 3d 58 54 bf 3c 6b 1d ff 3b
       -0.0065102866 0.03648973 0.023355648 0.0077854893
0003a0 65 ef b5 3d bd b2 fe 3d 14 b7 2b 3d ae be b5 3d
       0.088835515 0.12436435 0.041922644 0.0887426
0003b0 31 00 ac bc b5 f2 67 3a 41 b6 3c 3d ed ea 97 3c
       -0.020996185 0.0008848117 0.04607225 0.018544639
0003c0 6d 9f 8e bd 30 a8 67 bd 1e b9 b1 bd d2 82 cd bd
       -0.06964002 -0.05655688 -0.086778864 -0.100347176
0003d0 48 a4 29 bd c1 4b 90 bd 24 c8 9c bd b5 3c 26 be
       -0.041416436 -0.07045699 -0.07655361 -0.16234095
0003e0 96 2a a7 bd 1b 92 04 be 1b 50 bc bd 56 96 d9 bd
       -0.081624195 -0.1294636 -0.091949664 -0.106243774
0003f0 2e a1 b1 3c 1d 46 d0 3d f1 d3 e5 3c 74 f3 21 bc
       0.021683302 0.10169623 0.028055163 -0.009884704

sequential/dense_1/MatMul f4 [10, 64]
000000 db d2 73 3d 27 bb 04 3d 23 65 b1 3e 04 98 23 be
       0.05952726 0.032405045 0.34647474 -0.15975958
000010 84 2d 2f 3d 1c 64 d1 be f4 2c 37 bd 1b 15 f8 be
       0.042768016 -0.4089669 -0.044720605 -0.48453602
000020 52 d2 95 bd 17 45 a1 3e 0d 40 88 3e c4 4c c0 be
       -0.07315506 0.31498024 0.26611367 -0.37558568
000030 65 b2 56 bc bb 0e 28 bf 4b fa 39 bd fa a4 da 3d
       -0.013104056 -0.65647477 -0.045404714 0.10675998
000040 09 68 ce be 4c 18 ff 3d 11 69 ac be 9e 7f 7a 3e
       -0.40313748 0.12455806 -0.3367391 0.24462745
000050 15 a1 9a 3d c0 6b 46 be 33 e7 bf be 8e 62 4e 3e
       0.07550255 -0.19377041 -0.37481079 0.20154783
000060 4f 83 90 3e 0f de 02 be 77 3d 2d 3e 3c d4 69 3e
       0.2822518 -0.12780021 0.16917978 0.22834867
000070 70 10 34 3e 7f c3 38 be e3 da c2 be 4f 50 0d be
       0.17584395 -0.18043326 -0.38057622 -0.13800167
000080 f6 36 c3 3e bd 09 3b 3e 3a 16 94 be 99 27 e2 bd
       0.3812787 0.18265434 -0.28923208 -0.11042709
000090 57 ce 67 bd 06 74 a7 bd b0 13 59 be d1 50 86 be
       -0.056593265 -0.081764266 -0.21198916 -0.26233533
0000a0 f2 ec cd 3d 21 0a 53 bd 3c 1a 07 be c3 e5 87 be
       0.10054959 -0.05152333 -0.13193601 -0.26542482
0000b0 63 83 e3 be 38 52 7d 3e f1 3b 4d 3c 24 0d 99 be
       -0.44436178 0.24738395 0.012526498 -0.29892838
0000c0 b3 a8 21 bb 66 1f 50 3e 33 28 2a 3e c2 0b 76 be
       -0.0024667203 0.20324478 0.16616897 -0.24027923
0000d0 b4 da b4 be 7f 9c b1 be 9e fb 88 bd 08 3a bf 3e
       -0.35323107 -0.3468971 -0.06688617 0.37348962
0000e0 d5 65 36 be 41 ce 46 be 4f 38 b5 bd 0f 1b 27 be
       -0.17812283 -0.19414617 -0.08848631 -0.16318916
0000f0 71 15 36 bf a9 e7 86 3e b0 b0 a6 3e 9d 19 b2 bc
       -0.71126467 0.26348618 0.32556677 -0.021740729
000100 f7 b2 71 3d f2 2c e3 bd 26 86 db be 35 d8 38 3e
       0.059008565 -0.11092557 -0.42875785 0.18051226
000110 29 21 00 3e bb c4 0d bf 32 42 97 3b 0f fc 8b 3e
       0.1251265 -0.5537831 0.0046160454 0.27340743
000120 83 9d bc 3e e5 34 9e bc af f6 a7 be 56 eb 90 3d
       0.36838922 -0.019312331 -0.32805392 0.07076137
000130 31 4f 9d 3c fd b4 f5 be 90 0f 06 be 28 73 ee bd
       0.0192028 -0.47989646 -0.13091874 -0.11643058
000140 dd 39 03 3c eb 5a 09 3f e2 ae 98 3e 4c 22 c8 be
       0.008009401 0.53654355 0.29820925 -0.39088666
000150 9b 77 c7 be 89 f7 06 3d b3 02 b2 3e e8 33 3a 3e
       -0.3895844 0.03295091 0.34767684 0.18183863
000160 8c 0c da bd 43 c4 f0 be 8d 25 11 be c9 b3 9c 3e
       -0.106469244 -0.47024736 -0.1417448 0.30605915
000170 d8 ac bb 3d cb 43 82 3e 31 aa c1 3e e4 1e a7 3e
       0.09163827 0.25442347 0.37825158 0.32640755
000180 e9 7d ad 3e 6a 0b b9 be e4 6b 76 be 6b 76 d6 bd
       0.33885124 -0.3614152 -0.24064595 -0.10471805
000190 5e ae a0 3d 87 74 8c bd 60 ba 53 3e 88 81 c3 be
       0.07845758 -0.06858163 0.20676565 -0.38184762
0001a0 64 77 f1 be f3 79 14 be 42 d6 d4 be a4 6f 81 be
       -0.471614 -0.14499645 -0.41569716 -0.25280488
0001b0 45 4a 3d bd 13 ca cb 3e 94 6a 8b 3c 49 6d 2e be
       -0.046213407 0.39802608 0.017018594 -0.17033876
0001c0 7c 64 12 3e fb d8 b6 be da 88 46 3e 0d a4 1d 3e
       0.14296144 -0.35712418 0.19388142 0.15394612
0001d0 fc 5c 3a bc e1 ed 17 3f 86 a5 6f be 3d 66 57 3e
       -0.011374708 0.5934735 -0.23402986 0.21035095
0001e0 63 ec 0c bd 78 cc 95 be 4a 66 e7 bd f3 6d 74 be
       -0.034405123 -0.2925756 -0.11298807 -0.23870067
0001f0 43 e2 ba 3e a8 fc 94 be 8c 52 15 3e 51 58 b0 3e
       0.3650075 -0.2909901 0.1458227 0.3444238
000200 6a 4c d7 3e b3 15 c3 be af cf 12 3e 3f 18 67 bd
       0.42050487 -0.38102493 0.14337038 -0.056419607
000210 5a 14 6c be 2b 89 02 3f cc 1c 63 3e 40 00 74 be
       -0.23054639 0.5099055 0.22178954 -0.2382822
000220 b4 a5 f5 be ee 5e 13 bf 8a 1b 97 3e 61 bc 6c 3e
       -0.47977984 -0.57566726 0.29513198 0.23118736
000230 04 b9 cf 3e 4a 8e 72 be 6b b3 7d 3e b5 4d ae be
       0.40570843 -0.23687091 0.24775474 -0.3404366
000240 49 ae 9e 3e 41 6c a8 3e 10 b9 47 3e 70 74 68 3e
       0.30992344 0.3289509 0.1950419 0.22700667
000250 b2 4e 0d 3d 98 c9 85 3d 48 05 38 3e 36 16 9c bd
       0.034498878 0.065325916 0.17970765 -0.07621424
000260 bf f9 86 3e f7 01 58 3e 65 07 7f 3e a7 2b 17 3e
       0.26362416 0.210945 0.24905165 0.14762746
000270 d6 59 32 bd 29 88 9b be 59 35 93 3e f5 2b 46 bf
       -0.043542705 -0.3037732 0.2875164 -0.77410823
000280 e5 63 be 3e 3a 5b 1b 3e 54 28 49 3e 21 f9 e2 bd
       0.37185588 0.15171519 0.1964429 -0.11082674
000290 9f 71 e9 be f0 09 53 bd da 2b 04 3e 2a 4c f7 3d
       -0.455945 -0.05152315 0.12907353 0.12075074
0002a0 e1 64 3d bd 6c af 48 be 94 07 91 be ef f0 af be
       -0.046238784 -0.19598168 -0.28326094 -0.34363505
0002b0 c2 a5 6c be e1 cc b4 3e c3 b3 0a 3e 04 dc 0f be
       -0.23110107 0.3531256 0.13545136 -0.14048773
0002c0 bb 69 e8 3d 27 57 40 be 9e a7 9a be fe 4a 60 be
       0.113482915 -0.18783246 -0.30206007 -0.21903607
0002d0 d7 61 45 be ac 83 1a bf 1f 29 61 3e e8 85 e6 be
       -0.19275604 -0.60357165 0.21988343 -0.45024037
0002e0 6e 95 ed 3e 43 3e b3 3e f5 80 bf be f5 b8 be be
       0.46403068 0.3500844 -0.37403074 -0.37250486
0002f0 70 e5 9f 3e 75 e8 bd be a0 7b 37 be 12 32 ae 3e
       0.31229734 -0.37091413 -0.17918253 0.34022576
000300 e8 2f c7 be 29 f3 6e 3e 7b 99 b7 3c 0c 88 74 3e
       -0.38903737 0.23334946 0.022412052 0.23880023
000310 ac 5f 92 3e bc e3 ba be 8b ef 1d be 2c 15 68 be
       0.28588617 -0.36501873 -0.1542341 -0.22664326
000320 c7 20 19 bf ae 26 4d 3c 2c 97 70 be 63 2c bd be
       -0.5981564 0.012521429 -0.23495167 -0.36947927
000330 cd 95 27 3e 37 f0 2b 3e d3 59 4a bd 2d 67 3b be
       0.16365738 0.16790853 -0.04940207 -0.18301077
000340 d2 75 f5 3e c5 50 94 3e b5 3c 0d be 2a 18 d4 bd
       0.47941452 0.28967872 -0.13792689 -0.103561714
000350 b8 71 69 3e 12 02 df bd a7 6b ff bd d5 6b 51 3e
       0.22797287 -0.10889067 -0.12471705 0.20451291
000360 75 7d 53 bd 31 0e 8d 3b d6 b0 89 be b5 1b 72 be
       -0.051633317 0.0043046703 -0.26892728 -0.23643382
000370 06 11 af 3e d1 e5 8e 3e f3 c7 c0 3e ba 0d b8 be
       0.34192675 0.2790971 0.3765255 -0.35947973
000380 eb fe 10 bd c0 fb 6e 3e 8a 5d d7 3c 47 de 78 be
       -0.03539936 0.23338223 0.02628972 -0.24303542
000390 56 97 47 bf 25 25 7d bd 4d 14 41 be 27 09 8a 3e
       -0.77965295 -0.061803002 -0.188554 0.26960108
0003a0 6f 07 76 bd e3 7f 1a bf b9 88 4b 3e ce e9 80 bc
       -0.060065683 -0.6035139 0.19876374 -0.015736487
0003b0 89 ed 91 3e 3d 91 4f 3c 5a 19 59 be 39 17 62 bd
       0.28501537 0.012668905 -0.21201077 -0.055197928
0003c0 56 f9 69 bd c3 93 1a 3e 0b f6 c7 be 39 92 c6 3e
       -0.05712255 0.15095429 -0.39054903 0.38783434
0003d0 26 ed 5f bd 1a bd b6 be 47 f3 71 3e b1 97 9c be
       -0.05466952 -0.35691148 0.23627959 -0.3058448
0003e0 33 82 26 bf 83 dc 95 3e 4f f5 9d be 53 d2 97 3e
       -0.6504242 0.292698 -0.30851218 0.29652652
0003f0 b0 51 18 3e 32 98 ee bd f1 a6 8f be a5 6b db 3e
       0.14874911 -0.11650123 -0.28057054 0.42855564
